projects/example_LHCb/model/model.pt (torch, 503569 bytes, 16 tensors)

en1.weight f8 [200, 26]
-0.05930427214667219 0.0006778741327248721 0.10212847322730516 -0.04761940144312012 0.18020102503349628 -0.005664722924098802 0.11681835466687855 0.10731032934204145
0.060091029285879935 -0.162478142271184 -0.09461154989465329 -0.07946044590437257 0.1118835649180575 -0.026530795745859866 -0.06654114711842607 -0.03383893263263762
0.0352916448216447 0.03026650820781603 -0.058005676418937877 -0.06520044624476412 -0.017606749051102644 0.0036956262828557428 -0.0002879973964652742 0.14472269087917378
-0.012726136161010333 0.030906666190578615 -0.0002675716649029887 0.01035569525328003 0.1885630543779996 0.0872517404747224 0.05346879342524089 -0.01138750429123432
-0.029205036604897396 -0.07556380749355732 -0.009291120364279044 0.10151246796162468 -0.15078637797269248 0.06076703068310861 -0.033438797970169305 -0.08807024642076583
-0.1274020653782839 -0.07427668385166598 -0.2388983818618804 -0.03052271290490943 0.05233347864140687 0.07094603389387566 -0.034423379824443635 -0.03310576332001755
0.06272564307628206 0.03337012615974744 0.08807927307141672 0.1508322632162815 -0.11391882920368705 -0.006817081940348749 0.03498839225796006 0.007626247903868666
-0.006013415692681927 0.003260551148795707 0.05072694646025344 0.030992146802382513 -0.012786664431677862 -0.04198254753263269 0.10028662714185532 0.08326065925412836
-0.10573712836120319 0.02576042545082308 -0.1488918208779508 0.01948058780654321 0.2128240864321931 0.017289164013061086 -0.1688212583887414 -0.02538289816026
0.18849733312907338 -0.008104617547608325 -0.08170343197465597 0.012931994260522245 0.004898818315172209 0.0007342077475474154 -0.00038231728965728396 -0.06462632380309122
0.10294501177158649 0.13941907929417552 -0.04590095303855569 0.025368808685787718 -0.04472162304042413 -0.03374145266928182 0.08211249782462118 0.043219747976314934
-0.10551499684812508 0.02614014585312204 -0.03619951051483756 0.055998575927727244 -0.022641128163687917 0.04267765165022424 -0.12773510657367845 0.006477691777303353
-0.15361353053263627 -0.17137952033078774 0.04418736617410968 -0.049520029266224515 -0.044724172973285334 -0.022785049966300028 -0.0027233318030580123 0.08006422228345526
-0.017103260907156827 -0.003831939804579731 0.19719705903005577 0.1443009430013998 -0.0097636444463021 0.010568037715086005 0.135687024376642 -0.033142485223169725
-0.02461265078188957 0.0775918939124603 -0.009089795777790783 0.1249383860504562 -0.03595518154317331 0.0006252108044272785 0.0697647267022879 -0.11248191530104563
0.1364297387855522 -0.010752734516351408 -0.10119373739405553 -0.10478112288921998 -0.09439056029021398 -0.0041631904273116815 -0.0032466318964580786 0.07417766692921253
0.05559391331265708 0.022101174542102087 0.00928894615813608 0.028196331929598504 -0.06643505101713162 0.10281306174609449 0.04250986609160683 -0.01296543448109019
-0.017381207240991917 0.07616562270301248 0.00807618643166576 0.010393609878250575 -0.0899940482717152 0.001075755065949607 0.015420150378482367 -0.04006569493446583
-0.06198738544455279 0.09653725975173344 -0.031213442025626065 -0.011397141570580586 0.009377096470233597 -0.18280870846062167 0.1286132269621218 0.09713895296907311
0.015546929088042779 -0.03480370954229166 0.06238039906880162 0.015523105899868024 0.044516699450706514 0.00784218028751504 0.029094633782475253 -0.05961668300440856
-0.17500182287122762 0.013056423697968554 0.03118604078707715 0.06972381131272908 -0.05655205536627819 0.044591154180556654 -0.020583884981537893 -0.09511305905951613
0.02539988208660895 -0.0050077026882187434 -0.01256975217010795 0.0053804805841710535 0.09092751209963633 0.005285672410895189 0.03191542904261896 0.07055435672636645
0.014713260923422351 0.004203629416754135 -0.0031391310252525486 -0.07835537059803327 -0.030143158629016786 -0.002812680101987119 -0.13683426736550805 0.02383028094714962
-0.1630603217675427 -0.09691137913292246 0.07235072039306417 -0.000602124381339879 0.14334027291800408 -0.014450269773292312 0.18004130818868547 0.023004306603727997
0.09685523426598718 0.004373730122947203 0.10455610065070817 -0.006122698606286426 -0.02261926785249314 -0.05044642373317259 0.007299063576788838 0.1398870642142338
0.05796428448158806 0.038535878328598276 0.12649136306227712 -0.1612654974630114 0.007655441250472732 0.03006411065803944 -0.004197474356700072 0.013907141293378679
0.08341701495677128 -0.02199337630559821 -0.005178431429378252 0.047653169968330286 0.10096818982485567 0.005844822032649673 -0.016890545996348476 -0.10614476710527447
0.100393210477488 0.01452843601381339 0.13975172431168859 -0.04451583699378589 -0.11013624999054472 0.018699401834551908 0.08098330133634515 -0.0021154189304701475
0.005788952386502137 -0.03499276365604477 -0.14702706101190566 -0.020723224202550596 0.06391311544982725 -0.02937348801545248 -0.04273678961955309 -0.09548449469619708
-0.043922074260068396 0.02563027167724697 0.03807229652290421 -0.0008076664648370048 0.026016160372257995 -0.06176405058379009 0.02972889487138156 -0.006685038519523309
-0.03881802038111037 -0.022873209670660012 -0.10533125671851842 -0.7799378005568487 -0.07873326386331164 0.06381280596364 -0.08313683668397014 -0.043552381731020044
0.020473058634049912 0.08542834955792239 -0.025710771583655943 0.0038693593668931766 -0.10432985953301632 -0.026827189443733808 0.026875197665281327 0.08506287498819831
00000000: ec1d c42a 215d aebf a8be 8c9d 6b36 463f
00000010: 936e 8074 1725 ba3f 3be3 b4f7 9161 a8bf
00000020: dabd 9cc2 d310 c73f 79d0 327b e433 77bf
00000030: cbe4 ddc4 cee7 bd3f f10b 0c93 b078 bb3f
00000040: ceb4 215b 40c4 ae3f 164e af71 15cc c4bf
00000050: 9a14 9f68 7638 b8bf 9c1f 7c10 8557 b4bf
00000060: 676f 48bc 66a4 bc3f 4fe4 4290 e32a 9bbf
00000070: 5043 b632 d708 b1bf 433a fa29 5653 a1bf
00000080: 5f7a a918 bf11 a23f 95af aafb 2efe 9e3f
00000090: c644 6786 ebb2 adbf 5c4d 4ef8 f9b0 b0bf
000000a0: ed15 74ed 8007 92bf 7843 bd40 4a46 6e3f
000000b0: e9ca 2e66 cbdf 32bf 7457 28ec 4586 c23f
000000c0: 2a88 ed14 2910 8abf 8a54 1142 ffa5 9f3f
000000d0: 0d00 d38c 1b89 31bf 2e7d 85e3 5d35 853f
000000e0: cdc8 e48b d522 c83f b0a6 db4b 2156 b63f
000000f0: 1d69 3cfe 4260 ab3f 677d 1cf4 5452 87bf
00000100: 67d5 62d4 ece7 9dbf 8a31 f251 2658 b3bf
00000110: c4ba dc10 3907 83bf 850b 089a b8fc b93f
00000120: e599 09d1 f74c c3bf 6eff ea32 db1c af3f
00000130: 791b 66df e31e a1bf ccba 208c c58b b6bf
00000140: f80c 1ffc b54e c0bf 718c fff7 cb03 b3bf
00000150: 1801 95e0 3894 cebf afdd d896 5841 9fbf
00000160: 3963 8026 74cb aa3f 10e8 5aef 8429 b23f
00000170: ada6 20f5 f09f a1bf dc84 8915 3df3 a0bf
00000180: 6a19 a2a9 c90e b03f 20fd 09a1 e315 a13f
00000190: 8814 4cfd 5c8c b63f 2f09 d9ba 784e c33f
000001a0: 0315 d4cd c829 bdbf c4a4 ce7f 3aec 7bbf
000001b0: 36a1 f9a0 ffe9 a13f f3b1 6955 b33c 7f3f
000001c0: 3812 ccfb 85a1 78bf 94e5 a111 dfb5 6a3f
000001d0: 103d 25e0 e1f8 a93f 66d7 cbc3 67bc 9f3f
000001e0: ffcb 780c e52f 8abf 9793 4f89 bc7e a5bf
000001f0: f8e7 cc67 62ac b93f a535 8a10 9250 b53f
00000200: 50c9 48a4 9611 bbbf 118c 5ee3 f060 9a3f
00000210: 2f06 a81e e30e c3bf 8fd2 241e b8f2 933f
00000220: 1980 83d5 d13d cb3f 538c 0b28 40b4 913f
00000230: 5019 d35b ef9b c5bf 8c70 e775 f9fd 99bf
00000240: 5917 963c ae20 c83f 9e2e 825a 2799 80bf
00000250: f556 4d20 84ea b4bf b036 5ee3 167c 8a3f
00000260: 524d 3e87 c810 743f 92d8 d021 fb0e 483f
00000270: 795d 7a41 380e 39bf 6aea 31cb 598b b0bf
00000280: 8465 d8b2 9a5a ba3f 94e2 0001 7cd8 c13f
00000290: c1c8 4f68 5480 a7bf be64 93ee 47fa 993f
000002a0: 3dec c3a8 c0e5 a6bf 9bdb 7747 8f46 a1bf
000002b0: 0ae7 bf1c 5305 b53f 5603 3318 e620 a63f
000002c0: f342 b3e4 0703 bbbf b512 357e 7bc4 9a3f
000002d0: 19ba 9503 be88 a2bf dbdd 7668 d8ab ac3f
000002e0: 23c4 0764 3c2f 97bf b730 375c d8d9 a53f
000002f0: a77b a4bc 9f59 c0bf 4eb4 6425 5a88 7a3f
00000300: b82d eeb0 9ba9 c3bf f02f 839d c3ef c5bf
00000310: 8075 3af9 b99f a63f 190b 6474 b05a a9bf
00000320: ae95 8538 16e6 a6bf bc9d c5d1 f654 97bf
00000330: 9224 f8a0 3d4f 66bf 5b80 49c0 167f b43f
00000340: f738 0169 8483 91bf e556 8204 2964 6fbf
00000350: 6763 b3d3 c03d c93f 5b8a 7c0b 7478 c23f
00000360: 1370 b12c f6fe 83bf 5719 f402 b2a4 853f
00000370: c338 1842 315e c13f eb89 4844 0df8 a0bf
00000380: 814f b408 0f34 99bf 74e9 c9f6 0fdd b33f
00000390: 3d52 bebc ab9d 82bf 1b0b 1a4a f6fb bf3f
000003a0: 3b08 b3b1 b768 a2bf 99b5 a3fa a57c 443f
000003b0: c4c7 99e3 19dc b13f cd03 9c63 9dcb bcbf
000003c0: 1894 2499 8776 c13f 09ef b898 8705 86bf
000003d0: 05e0 aa30 d5e7 b9bf 941f 0c88 efd2 babf
000003e0: c061 7fd1 fa29 b8bf 4e99 b7eb 6b0d 71bf
000003f0: 8a73 283a ae98 6abf e5f6 8dbd 4efd b23f
00000400: c3ac 112f ce76 ac3f 5031 72b7 b0a1 963f
00000410: 203f b53f 1506 833f a9e6 04ce 7fdf 9c3f
00000420: 5e3a 6d33 e301 b1bf 2f15 cdf1 f451 ba3f
00000430: 46d8 3d69 dac3 a53f 2e03 9928 9f8d 8abf
00000440: 2405 a912 61cc 91bf 0dc3 961a 977f b33f
00000450: 49a0 cd64 3f8a 803f cca1 1db4 3e49 853f
00000460: b062 2996 d909 b7bf 4ba2 e934 0ba0 513f
00000470: 1a91 998c 9994 8f3f 09be dea2 7d83 a4bf
00000480: e86f 7f82 cfbc afbf b8a9 7a75 aab6 b83f
00000490: 085a c8a2 6af6 9fbf c219 8272 6257 87bf
000004a0: 9c64 5e95 4c34 833f 4b95 2198 4666 c7bf
000004b0: c652 d1f1 6576 c03f 5d7b 2b32 19de b83f
000004c0: 7e18 e47f 11d7 8f3f f6f9 86b4 cad1 a1bf
000004d0: bae8 d2db 52f0 af3f 31d3 6001 94ca 8f3f
000004e0: c785 8890 e4ca a63f 7ee8 e99e 8f0f 803f
000004f0: 26dd 56d2 fbca 9d3f ec90 99ef 1386 aebf
00000500: 9274 fcb0 7566 c6bf 3fb1 4886 53bd 8a3f
00000510: 70c0 16c5 3bef 9f3f 9734 5771 6bd9 b13f
00000520: c4b5 a318 64f4 acbf e9f2 cad9 a6d4 a63f
00000530: cd04 4823 f113 95bf 8d48 1556 5459 b8bf
00000540: a776 893b 6d02 9a3f 2a44 62f4 f482 74bf
00000550: d35e ea93 2bbe 89bf f21a 55c2 d709 763f
00000560: 074b c682 0647 b73f 164e 46e2 6da6 753f
00000570: 88a3 f317 3857 a03f 50e5 baae d90f b23f
00000580: e470 de73 fc21 8e3f 9451 e92d d337 713f
00000590: 1515 ec22 3cb7 69bf 3c3c 2ffa 180f b4bf
000005a0: 7000 0a22 d9dd 9ebf 322b ab21 9e0a 67bf
000005b0: 074b a707 c983 c1bf 513d 4a15 f766 983f
000005c0: 9427 a21e 29df c4bf e774 fc23 2fcf b8bf
000005d0: ec24 eea9 9385 b23f c247 5343 fcba 43bf
000005e0: 23f7 305c f958 c23f 33e1 c160 1a98 8dbf
000005f0: 24bb 4cf5 970b c73f 83e4 1ee2 708e 973f
00000600: df6b 9e2f 81cb b83f 23f4 6e3d 30ea 713f
00000610: 165f e448 30c4 ba3f 67ad 6f64 1d14 79bf
00000620: 6362 be5e 8129 97bf 47ad 4418 1dd4 a9bf
00000630: c5e3 a875 9fe5 7d3f c07f f7be d1e7 c13f
00000640: ad71 5ea4 7ead ad3f bfb5 4982 f9ba a33f
00000650: cb1a ca75 de30 c03f bed4 c90a 59a4 c4bf
00000660: b869 eadc 4f5b 7f3f f208 3d50 20c9 9e3f
00000670: a8bb 67f1 5e31 71bf 878c 49e8 587b 8c3f
00000680: a455 2b47 d15a b53f cc3b d87f 6e85 96bf
00000690: 90df 239a fa35 75bf 6621 210d ff65 a83f
000006a0: 58ec 3b21 0dd9 b93f efdf b277 bdf0 773f
000006b0: cee1 a95a c14b 91bf 23d3 5baf 4d2c bbbf
000006c0: ecc2 bd93 5eb3 b93f 0ab3 54ac 15c1 8d3f
000006d0: 4839 bd6e 62e3 c13f 7cb2 15a0 c7ca a6bf
000006e0: 903f d0a7 e331 bcbf c92e 569d ef25 933f
000006f0: caff c256 52bb b43f b36b f5e3 5a54 61bf
00000700: 919c d912 28b6 773f 62ad ff4e 92ea a1bf
00000710: 2c29 5661 c8d1 c2bf 87da de08 7838 95bf
00000720: 9879 a424 9c5c b03f e150 9569 1514 9ebf
00000730: d207 81b3 98e1 a5bf d4c8 fefd ab71 b8bf
00000740: e9f8 0941 f47c a6bf 82c3 906a d23e 9a3f
00000750: 4e23 e648 367e a33f a5fc b986 3277 4abf
00000760: 0b88 ddf7 faa3 9a3f 30d8 a6a2 899f afbf
00000770: a90e e05c 4071 9e3f 968a 055d c561 7bbf
00000780: 9f8d 10a0 f4df a3bf eacb f51d 136c 97bf
00000790: 1a45 da3e fdf6 babf 68c9 491e 40f5 e8bf
000007a0: 9477 66f9 dc27 b4bf 2e09 ae3a 0956 b03f
000007b0: 1b8a a6aa 7448 b5bf ef30 656e 7f4c a6bf
000007c0: 601c 21b5 e3f6 943f fca5 80df a1de b53f
000007d0: 364a 6dac ec53 9abf 4c2d fe7d a2b2 6f3f
000007e0: c8c9 b096 5cb5 babf 52bd 3735 9678 9bbf
000007f0: 5a05 2ffc 2b85 9b3f 9094 2d3a aec6 b53f

en1.bias f8 [200]
0.011503496910735172 0.09547961790322596 -0.058929456275652194 0.12792327253812522 -0.08557645065593761 -0.142048353294558 -0.0750594746602406 0.16009754489873654
0.1112788220981993 0.010961298756583557 -0.00203106328574767 -0.019047705260718174 -0.08302000894044748 -0.22995570286159858 0.15241161338002038 -0.15049207741382764
-0.05211765906341507 0.014251237207100103 0.004296062768752599 0.19781113877397458 -0.04679727422554811 0.037748184400992646 0.005901834521116467 -0.14650545327064945
-0.022392581671734656 -0.0724861211568856 -0.07101303307933414 -0.0392051897394286 -0.034222322262609406 -0.09186407118809278 -0.15553931546896135 0.03840551403919297
-0.04070914439820816 0.1561783402248699 0.05951779099727797 -0.14385532403289567 -0.012094154189409762 -0.060417273159712924 0.11279734661554233 0.013993216747046563
-0.024845726267497415 0.06547763852915575 -0.14312229131380055 0.16363085291759394 -0.02263822487618862 -0.1509393186913617 -0.13562851704811266 0.08125779016116452
-0.11806674856119546 -0.07798810819771904 -0.06931153433186477 -0.04425304835291949 0.028595025181300558 0.08359296701250721 0.023837326214237835 0.13627183936093093
-0.09107921132499736 -0.025333107425665063 -0.09684789170837037 0.020229935083941556 -0.1326831855670767 -0.005766215690624635 -0.09858627207329569 -0.17428282015589855
-0.01134311691999584 0.1468445683756726 0.12153349232654614 -0.0289494259538108 0.055821784047234445 -0.01720096813964516 0.1190433897351198 -0.043606927088574624
-0.025940375489881567 0.20366815611282404 0.14460749455439847 0.16138779885869314 0.014971819560836357 0.0890465696134653 0.11772367739915562 -0.13602062460646172
0.12244251179228666 -0.11605656212847763 0.02451142263233004 0.03733445815863743 0.07405992344086015 0.004063401564891442 0.10499118811998993 0.23541109238441837
0.14187056575073825 0.08237566567102436 0.0882470048467137 0.0733710778874418 -0.045553830007424405 0.11119254587348193 -0.1836472671665566 -0.06006060007703641
-0.047213979571032565 -0.07475585682770884 0.0436724952714664 0.09548762594701775 0.0772425385107889 0.05086752772567426 0.10298083133356453 0.09738418621008975
0.0010732137042043521 -0.006299682840827925 -0.06352147232746791 -0.09484747276549685 0.10270626795280412 -0.13559121894093282 0.17175379682207098 -0.00458889814687736
-0.1237826234947686 0.03550323930870458 -0.09970566337440097 -0.10135521145031103 -0.0011693410439330297 0.06544797308094276 0.09515288353631066 0.10097484453038039
-0.07757292895737598 -0.08365846085016991 -0.03138171769975386 0.08528150851524714 0.12522852126922493 0.18699983621232308 -0.09582213660548286 0.15028412826796625
-0.001041659008669134 0.08410247820761467 -0.1325017672154152 0.039713373830836445 -0.03765760647390869 -0.158272150588687 -0.1931723456899788 -0.03711128924992718
-0.1459930202666396 0.08695010882974902 -0.14582306271094794 -0.06641839481387733 -0.08838203775118719 -0.12484500188339827 0.04516234749172318 0.07987134064552774
0.0678613572956218 0.08309619673387632 -0.1200892476310341 -0.09041231596459304 -0.09090007337440122 0.006043668941829425 0.16891107890283766 -0.10531545999422322
0.12267750450269153 0.09396037786292084 0.1182426338373681 0.056410470442802556 0.01546082505761458 -0.02311855547397621 -0.10213412067528532 0.07733674820008019
-0.049178811424037246 0.05774831772147279 0.04984341039277927 0.03149123102511818 0.16978307081136923 -0.05757723843621383 0.0954068548853363 -0.08514125791120238
0.0769664091825967 -0.1546660907186938 -0.01876407450270154 -0.1281550480287261 0.12500116261515082 0.06202011989741478 0.11624991225935502 -0.008800601978866774
-0.025222327450612494 0.06527296956105183 0.18135420387683623 -0.06331092992747706 0.026564070305357634 -0.0017953624656164863 0.023872979136160707 0.035711122924788945
0.13892730683688767 -0.04585690771812971 0.06652895566932492 0.17195335818373986 -0.1662953913126326 0.08426983792595323 0.19204988658744074 -0.03237566923116385
0.10658774407114512 -0.10569136578543699 0.11854688972241546 0.15290347850111183 0.037857634932853226 -0.17932155967464428 -0.11994344528585275 0.007375288176977339
00000000: 4982 2b38 258f 873f dc34 542c 5a71 b83f
00000010: a531 f36e 002c aebf d969 f92f ca5f c03f
00000020: a400 e098 56e8 b5bf 60e6 ecf3 a32e c2bf
00000030: 4cb1 eb04 1937 b3bf 8946 c18b 137e c43f
00000040: e12f a6d5 c47c bc3f 321f 739d e072 863f
00000050: 34b6 6dcc 72a3 60bf 5a70 a2dc 3d81 93bf
00000060: e816 509f cc40 b5bf 7fdd a83f 306f cdbf
00000070: 5fb7 7f47 3982 c33f b055 660b 5343 c3bf
00000080: 5561 7172 2aaf aabf 4934 dbad c02f 8d3f
00000090: 7762 7e91 bf98 713f 6bcc e819 e051 c93f
000000a0: ac6c aef4 cff5 a7bf e8a5 f8e2 ba53 a33f
000000b0: 73d6 12a4 852c 783f 14d6 3dd1 b0c0 c2bf
000000c0: e6fb cfb7 14ee 96bf 2a60 c84f 738e b2bf
000000d0: 9f5e aafe e82d b2bf 0855 87df b312 a4bf
000000e0: 1879 d295 9685 a1bf 7626 6e5d 6784 b7bf
000000f0: a338 9758 b6e8 c3bf 3a9d 9135 e3a9 a33f
00000100: bf48 ad37 d4d7 a4bf 1500 cedf a6fd c33f
00000110: 0419 baab 1d79 ae3f 97d3 09ec d969 c2bf
00000120: 90f9 bae5 d1c4 88bf 133f ab48 03ef aebf
00000130: 9211 ca72 49e0 bc3f bef0 5ac2 79a8 8c3f
00000140: ad9c 0e77 2871 99bf de1e 1a7c 24c3 b03f
00000150: debb 42cc d451 c2bf 44e6 f214 dbf1 c43f
00000160: 244f ee8d 792e 97bf a9de bac6 fa51 c3bf
00000170: 2935 9076 465c c1bf 2895 497f 4fcd b43f
00000180: 5fbd d057 9f39 bebf 16a5 2f56 07f7 b3bf
00000190: 78e1 3095 66be b1bf 1823 d9e6 55a8 a6bf
000001a0: c98c eda7 0348 9d3f 1a8c 7e43 5966 b53f
000001b0: 9e93 0ee2 cf68 983f 25e2 b50a 5b71 c13f
000001c0: 8c80 fc99 f750 b7bf 7bde 980f ecf0 99bf
000001d0: aff1 92ff 05cb b8bf 21ca 57f6 27b7 943f
000001e0: 48ae 5e3b c3fb c0bf 03b3 01bd 509e 77bf
000001f0: 4dad 632e f33c b9bf 7f80 6942 e64e c6bf
00000200: 9e10 a661 0f3b 87bf 6466 6285 cdcb c23f
00000210: 4443 e9a6 d11c bf3f 059f d616 eba4 9dbf
00000220: 2b45 c641 ac94 ac3f 6e2d 7a6e 219d 91bf
00000230: 64a2 b7a9 a079 be3f a2ef 72ab a553 a6bf
00000240: 5800 8021 1d90 9abf b3df de52 cc11 ca3f
00000250: d00e ef95 7f82 c23f 5827 09fb 5aa8 c43f
00000260: 76d4 009b 8ba9 8e3f f491 4f88 c1cb b63f
00000270: 1cec 6490 2323 be3f 5914 22b3 1f69 c1bf
00000280: 1cb8 c977 6458 bf3f 0bf8 d302 e2b5 bdbf
00000290: 9450 56ba 8519 993f dd46 9c89 801d a33f
000002a0: 146d 1f55 97f5 b23f cabd 4e0d c9a4 703f
000002b0: 45f2 57d7 b3e0 ba3f 200f 745f f321 ce3f
000002c0: 520c 1590 d028 c23f 5e14 0b56 9216 b53f
000002d0: e35d c90f 5b97 b63f 68b3 ff6b 72c8 b23f
000002e0: efc9 2de4 d452 a7bf e0e8 155c 1d77 bc3f
000002f0: 1275 3def c081 c7bf b2cf 3752 43c0 aebf
00000300: 8fdb 5744 6e2c a8bf 7b6c 4228 3323 b3bf
00000310: 7af0 d9c5 3d5c a63f a778 9d86 e071 b83f
00000320: 418c c3c0 2ac6 b33f 9f31 0500 4f0b aa3f
00000330: 124b b1a6 f35c ba3f 337f eb86 2bee b83f
00000340: 851e b770 6295 513f f3a8 6c3c b2cd 79bf
00000350: 9c80 3d76 f142 b0bf ced4 a289 ec47 b8bf
00000360: ef95 f33d f54a ba3f 43f0 7c95 0d5b c1bf
00000370: 9645 2846 07fc c53f 0abe 72f7 cecb 72bf
00000380: e41d b9cf 37b0 bfbf f044 7707 7b2d a23f
00000390: 0546 6b73 4f86 b9bf e94f 7546 6af2 b9bf
000003a0: 47f7 a862 9228 53bf 01de f8c7 32c1 b03f
000003b0: ce96 e87a f05b b83f ee06 fac6 7cd9 b93f
000003c0: c746 edc8 d1db b3bf e79a 6211 a46a b5bf
000003d0: 33ed 6cb6 4311 a0bf cdca 064a 02d5 b53f
000003e0: 7d5a b0f9 7c07 c03f 10d4 7152 9cef c73f
000003f0: 9611 f4ae cc87 b8bf 8567 02a4 823c c33f
00000400: bb65 0dd8 0811 51bf cb0c 6a71 bd87 b53f
00000410: e11b 6d62 d1f5 c0bf 8770 a2b3 4f55 a43f
00000420: ff8c 8098 db47 a3bf 0eb0 5207 4342 c4bf
00000430: c972 9d15 dfb9 c8bf 581b 483b 4000 a3bf
00000440: 5ba7 be37 e6af c2bf 9cb2 cec1 5c42 b63f
00000450: 4d4c ac82 54aa c2bf 4713 94c1 cb00 b1bf
00000460: bcf7 b189 34a0 b6bf 5583 2890 d7f5 bfbf
00000470: ac9e f9ea 841f a73f cbd0 f5bb 7272 b43f
00000480: a732 3fa6 5c5f b13f eddb 64d7 ca45 b53f
00000490: 8631 2d3f 2bbe bebf 4c3a 39f4 4225 b7bf
000004a0: 81d8 582a 3a45 b7bf a385 3f07 3fc1 783f
000004b0: 01ee e8d3 e09e c53f 013a 7038 f4f5 babf
000004c0: 7f40 cbfd ca67 bf3f 1582 0a8e c90d b83f
000004d0: d00b 5335 2645 be3f ff59 684b d5e1 ac3f
000004e0: badc eecf eca9 8f3f da15 c4fe 63ac 97bf
000004f0: 4427 1b34 7625 babf 705f 4c54 57cc b33f
00000500: 41dd 7115 f72d a9bf 3c86 0600 3091 ad3f
00000510: 6ebe 1d53 1385 a93f 0e32 ba5e 9e1f a03f
00000520: e84e 46a0 73bb c53f 5ab2 2788 c37a adbf
00000530: f9f6 8b69 956c b83f a5d7 4446 d1cb b5bf
00000540: 3a6e 5412 12b4 b33f 46ee b734 19cc c3bf
00000550: b8b3 50b9 e336 93bf 57e3 0c76 6267 c0bf
00000560: 4070 b2c0 0900 c03f d689 4ee5 19c1 af3f
00000570: c219 51e3 8dc2 bd3f 3a8a 79cd 0c06 82bf
00000580: c416 1ebe e1d3 99bf 6cd8 93b5 bab5 b03f
00000590: 0552 5253 9d36 c73f 9492 8425 2535 b0bf
000005a0: 1333 d794 9c33 9b3f 8825 c1c4 4b6a 5dbf
000005b0: 3f73 9782 2872 983f af7c 2172 ba48 a23f
000005c0: 8f61 b1b7 5ec8 c13f 86de e37d 8e7a a7bf
000005d0: 7f37 d6a8 0a08 b13f a213 eb50 9102 c63f
000005e0: 58e6 94d9 2a49 c5bf 7162 ee45 b592 b53f
000005f0: 01fa 0b37 1795 c83f 7e63 1131 8b93 a0bf
00000600: efa2 f09a 5549 bb3f 4d9d 84df 960e bbbf
00000610: 9979 66c6 1659 be3f 5faf cd57 5792 c33f
00000620: c28a e16f 1362 a33f 8199 2245 02f4 c6bf
00000630: 3f4f df16 9db4 bebf 2b91 4cd8 8c35 7e3f

en2.weight f8 [100, 200]
0.035280344043006805 -0.09425303249396434 0.017536763925559178 0.009373873992459076 0.021953556111075898 0.028969616409216598 -0.07449876248089472 0.07350266458691192
0.007684422126547933 0.14413393342712294 0.14094580922953728 0.05531233813585706 0.035851857209954825 -0.03887691774509622 -0.07690139684478446 -0.028762933725522105
-0.031270182544736555 0.0073787091706735055 0.09220252825641669 -0.04171753108745181 0.02107586945605055 0.007982187388862463 0.041321162637603485 0.12986355472448408
-0.1258602427839958 0.0008191145450704856 0.0022712386319068516 -0.04160292211520439 0.04859359150414719 0.03334228978453094 0.01278788295602008 -0.06103770750517354
-0.07665547083459791 0.22205464348024806 0.010986290128825734 0.007591717506558199 0.024895447156421502 0.10325313900524606 0.05458097157862684 -0.026349174436297387
0.10096392424052117 -0.09740260425648026 0.07257798439868642 0.007208545483861412 -0.030202563049276442 0.009432265697032993 0.0325548820898455 0.007489814728273508
0.011621396869734015 0.03323313474110835 0.04129912028259601 0.09173462443798902 -0.09859284385813405 0.0022074997715856447 0.05548234257740941 -0.03483765374480396
0.15187600788057273 0.056624594808866745 0.17123946457457062 -0.009001182290165364 0.029316386534555032 0.0002911511377014895 0.024651595024909684 -0.027791408588453574
0.03984638676967822 -0.09688741605891499 0.07678687548039033 -0.12657851684317514 -0.05375490399237402 -0.056161029356314514 0.1943343637548929 -0.06930808462791313
0.03199984989179938 0.23198936004600013 -0.05841811700182421 0.06920779034882087 -0.018620603639847556 -0.029950079771828137 0.05154104936873521 0.04695171100067195
0.08587812656615887 -0.045492133833856765 0.025816011742737646 0.0759371807492505 0.22029063065256946 -0.01838730805652629 -0.013322189171823474 0.001042309940968086
0.031027496646946005 0.04292847845246281 -0.13996961609247416 0.03074980995836492 -0.03285148247386775 0.07886034409450382 -0.06179009851120041 0.10895545996957035
-0.09052434396525828 -0.08477280834435484 0.04051645546425411 -0.030460495246173006 0.03190327797493007 0.04216963286502331 -0.04488719505154855 0.052162122867309056
-0.04465204107903318 0.09224340298889457 0.11043788288882153 0.012161549125421674 0.018323581826212656 0.01311965966564582 0.06157536207240419 0.07723797068478672
-0.010048307040476913 -0.017130217019300478 0.008618245379128173 0.19793446688701224 -0.0015776680707615652 0.05461276819762189 0.024519042562916676 -0.05142443404513109
0.03763042801680782 0.21940391573201032 0.07547152381105118 0.023635844389657486 -0.05851758870733346 0.0839689771326174 0.06319728257858978 0.14163788606868516
0.024075701659317734 0.007229203905735398 0.08509207617902095 0.2737561631554252 0.15345019904969093 -0.028732464321013507 0.07250309074451691 0.21346401207305377
-0.0057231711748365575 0.04104361554084615 -0.020568635421644322 0.03361197080319089 0.004856445343014059 0.05615842856654774 0.015671232514064173 -0.0048094220127686904
0.1143175994726393 -0.13195500193238707 0.003619733725923157 0.02441798480705691 -0.07933454942151091 0.004179989526716674 0.12160171426363407 -0.12770486203549555
0.048846096016572624 0.05583972267938265 0.04974455489007143 -0.0226967809945413 0.06069727103223659 -0.02403278578148885 0.019212659740845697 -0.03278198771801897
0.03525245433489817 0.026127336166622946 0.025990081451081552 0.03455840884670005 -0.018967054247239726 0.06467638554797367 0.02955544955633691 -0.01215734827938873
-0.06162580437141642 0.00876546353017923 0.004924674415988458 0.00887386139073443 -0.020709803041556157 0.03851157689689092 0.02142010509287221 -0.012363760919659171
-0.033513625958802085 -0.15976941739745468 -0.002003788453955749 0.023346167438067333 0.10383568488500318 -0.09497190935948319 0.019466856434893227 -0.01077606637641225
0.08101786130754172 -0.03199074825772644 0.07233987197424789 -0.026079163429790775 0.057893126390441765 -0.08117283214288888 0.005993084087067369 -0.08067368181977486
-0.03395372341047357 0.007541368447084736 0.05121410717459959 0.08194656252763889 -0.01734449222099945 0.18603956719167258 0.04494975067948359 -0.027003239463752562
0.1790939196878362 0.022344204752726447 0.025506806590771577 -0.028575886706249592 0.08880423451308782 0.1645904189779239 0.24877969270761555 0.08378592431694348
-0.027617280093937064 0.0926739844423087 0.03099821236160639 -0.05166400407870893 -0.04231921777595633 0.09922740489895009 -0.017454413465196234 -0.223724314618259
-0.03627215895963864 -0.017861642926441497 0.003874473069942028 0.08758852485156152 -0.07663730820769062 0.20889289536641148 -0.0073615108445609185 0.34959086788498156
0.07990421116383098 0.07625850243884688 -0.16347224422595202 0.0791438762292814 0.07764692294880979 0.11596173292836431 0.03190133667365552 0.02463640394833557
-0.08112051110490144 -0.2575273178255907 -0.023604350455240706 -0.013446720968469912 0.004566247492985316 0.06838916011882339 0.12022469836353865 0.021106025147756745
0.07614626814547482 -0.03998995365352405 0.047572757213721034 -0.023426250628191522 0.02785941982557827 0.03144381025288114 -0.1549848571503956 0.07097249092334812
-0.017714557732694137 -0.017429913363155573 0.04181297910918027 -0.08169857599498889 0.003148207135597042 -0.0404224647306857 0.0852149559891185 -0.05458887413444246
00000000: 8b72 b6e7 4310 a23f 5143 1c7c f720 b8bf
00000010: 2bdc 264e 28f5 913f 5720 e011 9c32 833f
00000020: aca4 1c36 fe7a 963f 8593 380c 36aa 9d3f
00000030: 89aa 72d4 5912 b3bf 31d4 9114 12d1 b23f
00000040: de0e 8e5b b379 7f3f 561b 2811 fb72 c23f
00000050: 4916 9324 830a c23f 97b4 b716 e651 ac3f
00000060: 996b 6fb4 2c5b a23f 18a6 91e4 ace7 a3bf
00000070: 9f0e 7758 cfaf b3bf e8a5 c0ce 0774 9dbf
00000080: 5e3b bd36 a502 a0bf 7620 3229 2339 7e3f
00000090: 7d46 78bb 959a b73f 2285 610f 005c a5bf
000000a0: 9eaa 31a8 e994 953f 3b21 490e f758 803f
000000b0: 5789 5224 0c28 a53f 94f2 3d74 5e9f c03f
000000c0: 5ddb 4f3d 301c c0bf 8a89 6417 3bd7 4a3f
000000d0: 588a a7f4 219b 623f c840 ce6b fa4c a5bf
000000e0: ec69 9c5c 42e1 a83f 9489 6598 3d12 a13f
000000f0: c642 a698 8830 8a3f 1c75 1d9b 5540 afbf
00000100: d148 4b64 b19f b3bf ec17 d65b 496c cc3f
00000110: de1d 76e6 fa7f 863f 9305 9426 7e18 7f3f
00000120: 70ac 6c2d 317e 993f c3a3 3c37 cc6e ba3f
00000130: ef05 d47f 09f2 ab3f 4707 ec29 47fb 9abf
00000140: 2259 b090 c5d8 b93f 06aa d387 60ef b8bf
00000150: 9de6 6685 7894 b23f 87b9 ad31 b586 7d3f
00000160: d344 35b2 6bed 9ebf a648 9145 3951 833f
00000170: d452 cd93 08ab a03f a0fe f9d4 a3ad 7e3f
00000180: 612d ea7b f5cc 873f 2297 b6f5 ee03 a13f
00000190: 9644 ef85 2825 a53f bc3b df9b eb7b b73f
000001a0: a085 fd6f 613d b9bf 217b 656a 7615 623f
000001b0: e739 c07d 2e68 ac3f 2fb1 01af 3dd6 a1bf
000001c0: cf71 724b ac70 c33f 33e8 b41d e6fd ac3f
000001d0: 3cf0 10be 2ceb c53f 5225 7e3c 366f 82bf
000001e0: de79 9c65 1d05 9e3f c9ce 579d b414 333f
000001f0: e873 b489 443e 993f 2e1d fddb 5975 9cbf
00000200: f03d 14e0 be66 a43f bcf2 5d1b 9dcd b8bf
00000210: e946 f3fe 4da8 b33f 0ddb 1b8f b933 c0bf
00000220: 0e32 4b45 c385 abbf 3146 ca70 23c1 acbf
00000230: 517a 68cc f2df c83f 0646 d3b4 2cbe b1bf
00000240: 703d 86c9 4862 a03f f071 35cd d3b1 cd3f
00000250: b291 08bc fae8 adbf 5136 2d0c 9ab7 b13f
00000260: cae1 a88e 4711 93bf 75c6 87d4 3bab 9ebf
00000270: 0767 e1a2 9663 aa3f 2d6f 7afe 0d0a a83f
00000280: 561c 0be1 1bfc b53f c255 15b6 be4a a7bf
00000290: 67c4 9738 836f 9a3f 2954 de7b 9e70 b33f
000002a0: db4d 22bf 7b32 cc3f 9499 0e5b 1fd4 92bf
000002b0: bacf 6ef6 a948 8bbf bed1 f5c6 c313 513f
000002c0: 5664 800d acc5 9f3f bc6d 0ab6 b8fa a53f
000002d0: 5082 c63d 86ea c1bf 757f 84d0 e07c 9f3f
000002e0: e664 b3d5 e8d1 a0bf c852 d606 3130 b43f
000002f0: 8dfa a4a8 f3a2 afbf a039 4a49 81e4 bb3f
00000300: 7d98 d278 9a2c b7bf 2fd8 6db7 abb3 b5bf
00000310: 836e 56a6 92be a43f 61ee 9b3b 0931 9fbf
00000320: 0d36 135f a055 a03f b346 1414 4297 a53f
00000330: 9ada 8255 74fb a6bf 632c 9c67 feb4 aa3f
00000340: 3da8 44e0 a1dc a6bf c1ea 1b7f 439d b73f
00000350: 3239 3f37 a845 bc3f 845c 197e 27e8 883f
00000360: 07b4 c1c2 6ac3 923f 1fbb 96e9 7ade 8a3f
00000370: 5c40 ae4c ce86 af3f acbe 191e dec5 b33f
00000380: 14be f3f0 3494 84bf 5730 7c67 958a 91bf
00000390: 9206 6b50 71a6 813f f1f4 03a7 ea55 c93f
000003a0: 75b0 2431 38d9 59bf 27a4 b46a 34f6 ab3f
000003b0: 3872 bf17 851b 993f e1d7 e0ac 4d54 aabf
000003c0: ff55 55a3 4b44 a33f 2b77 5771 6d15 cc3f
000003d0: 5a39 8c0e 1a52 b33f 1fee aaaa fe33 983f
000003e0: dd40 7a73 04f6 adbf 17c5 a9aa fd7e b53f
000003f0: 4e01 df75 b22d b03f da10 45b4 3021 c23f
00000400: a524 05fd 4ca7 983f 46b7 9ea5 5e9c 7d3f
00000410: 4a6f 5624 98c8 b53f f72e f591 3885 d13f
00000420: a4d6 3d91 41a4 c33f 2074 5e0a 0b6c 9dbf
00000430: 7a4b 9b03 908f b23f 0005 5deb c952 cb3f
00000440: 7cc3 6710 2e71 77bf 9441 ea34 ab03 a53f
00000450: 3d55 d6c1 f10f 95bf cf26 b596 9635 a13f
00000460: 4cd7 c41e 5ae4 733f 2118 2d2c ccc0 ac3f
00000470: f42d 8b9c 1e0c 903f 89bc 1e64 0bb3 73bf
00000480: 3f9b 170f eb43 bd3f 9cee ebc8 e6e3 c0bf
00000490: e55f 23bf 21a7 6d3f fcdd b838 0701 993f
000004a0: 2c52 35df 444f b4bf cab5 0965 091f 713f
000004b0: 3f5c e639 4a21 bf3f 53c7 fd06 a258 c0bf
000004c0: 7e5e db01 5b02 a93f 7189 732d 0697 ac3f
000004d0: 9c59 d048 1e78 a93f 7d55 6230 d33d 97bf
000004e0: 576e 1474 b613 af3f 0963 daf3 0c9c 98bf
000004f0: 3441 06c5 7bac 933f cd24 4bfa ccc8 a0bf
00000500: dab9 f114 9c0c a23f b20e 78d9 1fc1 9a3f
00000510: ee3c 69d7 249d 9a3f 73c4 98c7 a3b1 a13f
00000520: 34fe c576 196c 93bf 4c85 c0b0 a18e b03f
00000530: 9a5b 0da5 c843 9e3f 36e2 20aa f3e5 88bf
00000540: c2d7 badc 6a8d afbf 6d3a 9299 a0f3 813f
00000550: a23e f638 e52b 743f 8114 b383 752c 823f
00000560: 2b91 145b f334 95bf 053e 9416 cab7 a33f
00000570: 0a30 67eb 26ef 953f 79a9 71e6 2b52 89bf
00000580: e846 edae b228 a1bf d1bf 4f03 5373 c4bf
00000590: d448 17bc 3f6a 60bf 50a4 88c6 0ee8 973f
000005a0: 4925 bdb6 f994 ba3f 10d7 bc3c 1450 b8bf
000005b0: 05a5 f99e 1eef 933f f868 5425 c311 86bf
000005c0: 772f b528 96bd b43f 0440 1563 1761 a0bf
000005d0: 4383 53a8 dd84 b23f 00e7 2608 7fb4 9abf
000005e0: 5231 05f9 2aa4 ad3f a39d 6023 bec7 b4bf
000005f0: a784 7f42 348c 783f 0058 10c9 07a7 b4bf
00000600: 3536 40e7 6162 a1bf 6f9a 8ead b2e3 7e3f
00000610: eb46 d146 bc38 aa3f 7969 132e 73fa b43f
00000620: e66f 6b2b c1c2 91bf 48d4 6c00 25d0 c73f
00000630: e072 435a a703 a73f 1410 88b9 bca6 9bbf
00000640: e560 fcaf 8cec c63f 391f ac32 66e1 963f
00000650: 8cf2 87d0 741e 9a3f cb1f 6e4b ff42 9dbf
00000660: 07e3 fad2 dfbb b63f 1f60 5f81 4c11 c53f
00000670: 1f48 0b52 03d8 cf3f 7470 ce8c fe72 b53f
00000680: 6552 3b4b b447 9cbf 8aa6 5e74 7bb9 b73f
00000690: 836c 4fd1 febd 9f3f aa03 cc4f b473 aabf
000006a0: fa18 ae50 ddaa a5bf cf6e e89a f766 b93f
000006b0: 15f9 03dc 91df 91bf f77e 4d93 ffa2 ccbf
000006c0: ff52 f9b0 4392 a2bf b238 e390 524a 92bf
000006d0: e1ff fce3 5bbd 6f3f fe09 be99 336c b63f
000006e0: 15cf 67ac 809e b3bf 1695 fb9c 00bd ca3f
000006f0: 6b80 3985 1a27 7ebf cdf5 2260 b25f d63f
00000700: aae6 c235 9a74 b43f ee4b 045e ad85 b33f
00000710: 4289 6093 a8ec c4bf 065c 15e8 c542 b43f
00000720: 563e b332 abe0 b33f a8ca 830a abaf bd3f
00000730: f88f 6c3b 5f55 a03f 4620 ff14 493a 993f
00000740: a5f8 3a56 50c4 b4bf f6cc f8db 537b d0bf
00000750: 298c fe24 bd2b 98bf 1156 6256 f489 8bbf
00000760: 2172 5dba 0eb4 723f 237b 1cb6 f381 b13f
00000770: af92 a4bb 0bc7 be3f 665d 085f d19c 953f
00000780: e4b2 6563 527e b33f ca8b 382e 9079 a4bf
00000790: a4b3 d3d8 745b a83f cc90 4311 0dfd 97bf
000007a0: 2044 2504 2e87 9c3f 0340 6531 6719 a03f
000007b0: f907 6b36 8bd6 c3bf a872 6ecf 402b b23f
000007c0: 9d06 80d8 c323 92bf deab 77af 25d9 91bf
000007d0: 53ff a4c3 8268 a53f 423b 07a8 32ea b4bf
000007e0: f38f 07d6 44ca 693f 2482 15d8 40b2 a4bf
000007f0: b574 1ab9 a5d0 b53f 3f0a 44aa 12f3 abbf

en2.bias f8 [100]
0.058927596947036975 0.07075415124086423 -0.05822744295038989 0.006491825937288074 -0.0397174688813411 -0.04168150089497169 -0.05589681154182299 -0.038918401631984983
-0.006209797583164458 -0.00589313204152853 0.03237895276143777 0.006743294479199012 0.05804738266491775 0.057298384708069146 0.004039696095530907 -0.02617326930623285
0.04281545091261753 -0.055463545951649505 0.007740183108999021 0.028604643078924453 0.04643706750074969 -0.008644083630414261 0.026798653944549493 -0.005850970868065936
-0.006130493776761331 0.06451429310568713 -0.0552532094671095 0.002946144669948995 -0.016464785369987432 0.007143080511176256 0.05725169535762487 0.04978221554595659
0.0025334637502290765 0.04371808985101944 0.026728436764447378 0.06342635724533137 -0.026628492301911173 0.07966299042419353 0.07241866940561537 -0.009526315247457414
0.06526574439755999 0.0383675325864921 0.052319229255170525 -0.014463404367052691 -0.04864279648734837 0.014159531846414717 0.012227611190543941 0.012049649434120445
0.055356024606352534 -0.036089862322930585 -0.06026317685479098 0.06534305686572595 0.03038971978242349 0.04781816353326531 0.06505543673135339 0.026031296115209105
0.06108294751660031 -0.007716308110808337 -0.027120257490069185 -0.004628205643377521 -0.010072665017119644 0.05174310777639998 -0.02434777597735137 0.058904094329839264
-0.02528039139776071 -0.006886591962841136 -0.05099780399249016 -0.025917531230622768 0.02437185792830802 0.0636786924074936 -0.04165382430370857 0.0012764956904744267
0.028544867379420344 0.039298462833732783 -0.010335185602859245 -0.041406577408472645 0.00021729012619983517 0.07155716308440063 -0.023940082680655412 0.00044475836331091755
0.05434529531431856 0.07245329132908263 0.0669905996760857 0.034270624943336 0.014580623555266306 0.04307222574639666 -0.07094689771542792 0.04297316881912906
-0.009073955821378824 -0.011387850838074342 -0.004468744353788297 0.005688868801238069 0.07381642281933713 -0.012726434149557047 0.029966300417909635 -0.00027920119096256886
0.021186248740167432 -0.05797818600989255 -0.041405620472127376 -0.01816885943954894
00000000: 5054 700b c22b ae3f 7ec0 a2ad f11c b23f
00000010: 173c 67c6 fccf adbf b1bc 7841 2c97 7a3f
00000020: 62bb d91b d955 a4bf b05a 6216 4757 a5bf
00000030: 1bad 0bc3 819e acbf dca5 71dc 1ced a3bf
00000040: a931 8dd8 716f 79bf 05e1 3a96 6523 78bf
00000050: 41d2 605e f993 a03f 315a 1654 db9e 7b3f
00000060: 8514 54f4 62b8 ad3f f19b dec0 3656 ad3f
00000070: 0a7b dba9 ed8b 703f 7a76 cc5e 2acd 9abf
00000080: 82ca dd22 e8eb a53f e30d f7c7 b765 acbf
00000090: 665b 1795 2bb4 7f3f 8da3 261a 894a 9d3f
000000a0: 5cc9 796c 99c6 a73f 89de f843 fdb3 81bf
000000b0: fe1b 1339 1b71 9b3f 6079 7308 30f7 77bf
000000c0: 7aeb 78e4 491c 79bf b873 033b 0284 b03f
000000d0: 4a0f 520f 264a acbf bc03 3760 8322 683f
000000e0: a68c cc0a 25dc 90bf d7da 0213 1042 7d3f
000000f0: 1132 671e 1850 ad3f fa75 62f7 0d7d a93f
00000100: a8a0 7dfe 0ec1 643f 20b4 4eac 3762 a63f
00000110: 4524 1b07 b35e 9b3f 65b7 12b2 b53c b03f
00000120: 5261 50de 7f44 9bbf 16cf 9232 cb64 b43f
00000130: 488a b7a8 078a b23f 8b83 8363 8882 83bf
00000140: d392 bc7d 41b5 b03f 66d8 5fc3 e8a4 a33f
00000150: 31ad 3405 96c9 aa3f a767 f645 fd9e 8dbf
00000160: 20c3 3268 b5e7 a8bf fffa a731 acff 8c3f
00000170: 806a 5f31 ca0a 893f f984 fb91 7cad 883f
00000180: 2947 a4f6 9f57 ac3f 56cb c9d4 5e7a a2bf
00000190: df20 7dab d0da aebf 484b 4294 52ba b03f
000001a0: 0e84 6692 7b1e 9f3f 6370 0f51 9f7b a83f
000001b0: 402b 301d 79a7 b03f b102 f3b5 f2a7 9a3f
000001c0: 97aa da9b 4346 af3f 5d60 b5af 229b 7fbf
000001d0: df70 eaab 69c5 9bbf 081d 0a7e 06f5 72bf
000001e0: ee1f a836 faa0 84bf 4cd6 6297 127e aa3f
000001f0: fc54 3696 9fee 98bf 958b 7e6d ad28 ae3f
00000200: db43 2259 1ae3 99bf fe47 2e74 1d35 7cbf
00000210: 8991 a158 621c aabf f944 1d14 208a 9abf
00000220: abb7 fab2 eff4 983f 4a9c 572d 3f4d b03f
00000230: 4188 466a a653 a5bf b0e2 9ecf 02ea 543f
00000240: 6cfc 739f dd3a 9d3f 08d3 4e99 ed1e a43f
00000250: e888 4c21 9d2a 85bf a00b 9e2f 3e33 a5bf
00000260: b41b b7f8 0b7b 2c3f 48f6 3dfb 9151 b23f
00000270: a532 b5c0 bf83 98bf 5ccf 02a0 ce25 3d3f
00000280: 1407 2284 25d3 ab3f e8f7 be84 4c8c b23f
00000290: 1a8b bfc2 4b26 b13f 41b2 b05a eb8b a13f
000002a0: 68eb 992a 72dc 8d3f 3cb6 e411 900d a63f
000002b0: 5ebf 706d 9329 b2bf e206 5e45 9400 a63f
000002c0: 0241 fcbb 5d95 82bf 33bb 5e77 8352 87bf
000002d0: fbc6 a86d d14d 72bf 68a7 3d17 364d 773f
000002e0: dbb0 ea11 a2e5 b23f 2382 bc13 5110 8abf
000002f0: 8bae 1b61 7caf 9e3f c8c6 f3fb 374c 32bf
00000300: 2c13 db15 d9b1 953f 2d79 9619 51af adbf
00000310: a1c4 9813 1e33 a5bf e2d8 6484 db9a 92bf

en3.weight f8 [50, 100]
0.00031478472046818427 0.14019224764585855 0.09760668688748199 0.1408756430127407 0.1217822986773188 0.03601590649787567 -0.12668756621882 0.1366113662680474
-0.05609565382923803 -0.09609600969599134 -0.028049641549363874 0.08896264968259934 0.13578474433852367 -0.014022265995699777 -0.13377837315414232 0.030720465270930482
-0.05350130131455815 -0.09025996415773496 -0.08218373893034153 -0.025008184988245325 0.0946184220673266 0.20339451255447316 0.021492114892919332 -0.030408197286218953
-0.10542421052000853 0.07624296269084584 -0.06383701913506237 0.015393285529832277 -0.002721981205732831 0.12781017527489566 -0.028385416703685672 0.039039867486397206
-0.03880286416589374 -0.03635103605578275 -0.006401131723800991 0.03172530436038192 -0.01985578905847137 -0.05402413980847475 0.030944936667009933 0.11002533464976239
-0.022289917095062287 0.1277321053147296 -0.017124470803454698 0.08027986408575219 0.1599339867444282 0.0959355695670315 -0.005784468979313211 -0.013447449365335332
-0.08417968607096245 -0.0848115627353865 -0.09731034139089223 -0.017171179373309954 0.008327668846807041 -0.0985268121988414 0.09703392424220832 0.018832276893732108
-0.011917123136503689 0.004301811278138262 -0.11392128217115206 -0.03229675113222595 0.13447605944204985 -0.13083884932825132 0.08293020915407706 0.07549851744445098
0.10200355930858616 0.1283769785965035 -0.1930724784668798 -0.008830626445386994 -0.04946812437301237 0.14501135404707766 0.10531297347144628 0.07812975494122383
0.08307132034978724 0.0918333426085631 0.013824361974699667 0.12285780030102833 0.11332293674103343 -0.029591290268680855 0.04092372528091922 -0.0034714460009421673
0.05097769580029326 0.0016700513401404218 -0.03399642561492572 0.13158682687689577 -0.1469373712833442 0.09974247430415199 0.13581273555073603 0.09327845837505738
-0.03686646053513868 0.18088118021767116 0.037921638264750236 0.1319113629109914 -0.07249308936795248 -0.035448473907634566 0.0940138847534498 -0.11044185155346327
-0.07531593803136219 -0.03039059885535479 0.05877680392879941 0.05482017825599278 -0.11318426977595894 0.08414581778307123 0.03931811345633472 0.08468162650740878
0.15071906294140572 0.12127349348622611 -0.22520497254625538 0.01611744240925804 -0.08408959356894218 -0.21777648758252863 0.11783532912708584 -0.0766765480009774
-0.17913299221142887 -0.006446567642575914 -0.2769096640458938 0.183301818929353 -0.04911385338872398 -0.22809638930406256 -0.4374334058305627 -0.20967768781480567
-0.09364885015466168 -0.26014590233440815 -0.06747291306855448 -0.3399835177596597 -0.03093413553662425 -0.19692541348501347 0.06942121704999725 -0.01231137854269286
-0.06516095207843713 -0.07711651081646999 0.030331721110427656 -0.07287061196408275 -0.09599843880516569 -0.1789366582216249 -0.10933654264489936 -0.2198122762271139
-0.14867916749287954 -0.32151039935387343 -0.037951945357313256 -0.13803256916820172 -0.130997470850954 -0.021866103976759553 0.02757275418455206 -0.029765747082239228
0.14785354597732472 0.04938130276197065 0.09631541802956857 -0.019073982931918993 -0.15736416548668364 -0.14490554813810314 -0.0721583820571524 -0.06909409313504962
0.17386549229880718 0.038361372231532694 -0.1227989995241398 -0.06728517457892019 -0.08215505014390366 0.08589326498211106 -0.19344607496606506 0.01578702705364576
-0.048256702866135336 -0.37285448289822576 -0.042629364262671735 -0.09267105190924138 0.0037278290429210432 -0.007568665785259727 -0.07447144200846477 0.007131074638968267
-0.10586320724206662 0.08539451970834327 0.12995486327064135 -0.0373775515307031 0.06999643456175068 0.08427240234908696 0.013666563830395006 -0.032586095963974125
-0.11751698071881689 -0.006336044942851036 0.09787289042805276 -0.13544838458077677 -0.21644768575826043 -0.20243929536246866 -0.0964279680990529 -0.08417730390848917
-0.2489371254152783 -0.10656944884939766 0.14639014982668383 1.8365918905118796e-05 0.002503094421524111 0.1399711775007228 0.07152172545565177 0.11677932442569365
-0.24906935800596697 -0.24254477165765262 0.03355967626043933 -0.17561851155188213 -0.1563343168590779 -0.1694257158229304 -0.16008850790826992 0.10349687517331774
0.14446249241778586 -0.06341507644263493 -0.04935889984486609 -0.07015159855037197 0.01266911085836228 0.054571920719630886 0.020218823117574274 -0.03727268999517596
0.106956254503577 -0.053465046328449596 0.07247965660847068 0.013752706084982963 -0.027171430414043983 -0.0834300511724008 -0.013367683155285717 -0.11146066780575209
-0.1278985219748324 0.11553754176824405 0.25431322388662625 -0.013116704560538778 0.17614503271200413 0.3542443285232851 0.022420236351783716 0.15562749899795228
-0.00931640646100168 0.16246697880631006 -0.4922512112287097 -0.024353905604913795 0.06751809965731724 0.0974920814228706 -0.040605416214882145 -0.054669256090580154
-0.016501132452408203 0.09420033499198315 0.14874816333056967 0.06752318051167011 0.1685259727548132 0.21103987992519432 -0.025954918312676732 -0.024188168162940882
0.07646708187338254 -0.004684777341681312 -0.06849606139235175 0.10657399495933895 0.04828336147825327 -0.10150743242400494 -0.14573057251187427 -0.1154016101721748
-0.12135328086326719 0.13646072829813036 0.03528283533117009 -0.10956370315371763 0.06515478744827151 0.05802713562968636 0.022737694243910634 0.11030512628274886
00000000: 0ca7 6614 36a1 343f 4756 65cf d1f1 c13f
00000010: 497a 0d78 c0fc b83f f076 c58b 3608 c23f
00000020: 7600 0dee 1f2d bf3f 709d 1649 ad70 a23f
00000030: 061e dc54 4c37 c0bf c50a 3133 7b7c c13f
00000040: 97e3 49cd 91b8 acbf 239e eb82 bf99 b8bf
00000050: c8e5 7994 0bb9 9cbf e6c7 f396 41c6 b63f
00000060: 2a66 1dfe 6461 c13f bf51 f0ae b4b7 8cbf
00000070: d4f7 cd54 a61f c1bf b24e a086 2f75 9f3f
00000080: 1702 e1c6 8564 abbf 1813 32ea 461b b7bf
00000090: 8404 f856 fe09 b5bf 8598 a0e2 be9b 99bf
000000a0: c6d7 60b4 e938 b83f c8bc cdd5 d408 ca3f
000000b0: d90c 596a 0702 963f 0d9e 7f93 5323 9fbf
000000c0: b2da 63c0 14fd babf 3fad 4ea7 a884 b33f
000000d0: 628f 7575 9f57 b0bf 25d0 6dcf 8386 8f3f
000000e0: be4f 4988 684c 66bf 0f6b 7375 155c c03f
000000f0: c3e0 b311 1111 9dbf 8041 3094 08fd a33f
00000100: 61d3 2a11 f8dd a3bf 5513 125e 9a9c a2bf
00000110: 9beb 93b6 1238 7abf f3f1 5d91 4c3e a03f
00000120: b5d3 9172 1355 94bf 4f07 5853 0da9 abbf
00000130: 62ad d88b 07b0 9f3f 005c 0dce 9e2a bc3f
00000140: 71bc d003 2bd3 96bf 49ed 7c8f 8659 c03f
00000150: e1a2 3fc8 1389 91bf ba8f c69e 388d b43f
00000160: 2609 4b85 b778 c43f b643 d0c5 3b8f b83f
00000170: 2c3b 7491 74b1 77bf e8eb e819 568a 8bbf
00000180: 7d8e a9c6 cc8c b5bf 4169 45e8 35b6 b5bf
00000190: 6023 d69d 54e9 b8bf aa53 5e57 5295 91bf
000001a0: 8aa8 caca 180e 813f 0f54 2c9c 0d39 b9bf
000001b0: 250b 391b 37d7 b83f 7b9f 78b5 c448 933f
000001c0: 2acb 1131 0168 88bf adf9 0cac c69e 713f
000001d0: 1955 3ef5 f129 bdbf 4e8a c223 3389 a0bf
000001e0: e303 b3f2 8236 c13f 499f 74d1 53bf c0bf
000001f0: accd 2a08 ea3a b53f e505 52ef de53 b33f
00000200: 4f54 4ebf e71c ba3f 9acd 5026 a86e c03f
00000210: d0ee 6256 99b6 c8bf 75fe 499e ca15 82bf
00000220: fcca c0d0 e253 a9bf f026 9767 bb8f c23f
00000230: 4685 e780 caf5 ba3f 3d2a 51c6 4f00 b43f
00000240: cf4b 237c 2944 b53f fea6 2fd3 6382 b73f
00000250: 2322 8e74 f24f 8c3f 60f6 59da 9b73 bf3f
00000260: 877d 3063 bb02 bd3f d23c cddf 2d4d 9ebf
00000270: 0b90 6c5b f4f3 a43f e36f 6761 2670 6cbf
00000280: e74c 93a0 bf19 aa3f 01e8 ddf8 b35c 5b3f
00000290: 88dd 64c0 fa67 a1bf aea5 024f d6d7 c03f
000002a0: 2970 1c02 d8ce c2bf 6390 2809 b988 b93f
000002b0: f40c c9cc 4f62 c13f 2c65 24d8 18e1 b73f
000002c0: f5a8 a224 29e0 a2bf 7b96 bf50 1d27 c73f
000002d0: fdd0 5008 776a a33f 1935 d6b6 78e2 c03f
000002e0: ee77 0538 e88e b2bf 79b7 4068 4d26 a2bf
000002f0: 94cf 6240 4b11 b83f cd24 88cc ea45 bcbf
00000300: e256 b6c2 e747 b3bf 8327 c290 b61e 9fbf
00000310: 3773 4645 fe17 ae3f 286f 8af1 6311 ac3f
00000320: a600 1cf1 a4f9 bcbf 1435 798f 948a b53f
00000330: 7ee9 def6 8021 a43f 5be1 6bf0 b1ad b53f
00000340: 09ca 1b23 c34a c33f 631f 6598 c70b bf3f
00000350: 94ca fd3b 84d3 ccbf fcf4 2b40 1781 903f
00000360: 8702 5046 e586 b5bf 5b9a 0096 19e0 cbbf
00000370: f90a eac4 742a be3f 9ccc 0802 13a1 b3bf
00000380: 0863 9773 d4ed c6bf 951b 2453 b767 7abf
00000390: 6280 c14f e3b8 d1bf 42a8 cc1a 6f76 c73f
000003a0: 5093 2b74 7325 a9bf dec4 3232 4332 cdbf
000003b0: 2517 0eaf e8fe dbbf 50c8 eeed b7d6 cabf
000003c0: 1ce7 b8fc 5ef9 b7bf 88bd adff 3aa6 d0bf
000003d0: 7dcb fea2 e745 b1bf c73b 7d3a 4ac2 d5bf
000003e0: 59de d6b1 32ad 9fbf 3caf 5519 da34 c9bf
000003f0: 5fd5 e0c0 96c5 b13f 5824 ad41 b536 89bf
00000400: 4332 275e 63ae b0bf f138 f05b e8bd b3bf
00000410: f37e cd58 470f 9f3f 71a9 39ff a5a7 b2bf
00000420: 599f 228b 5a93 b8bf 3e07 8f7b 65e7 c6bf
00000430: b2e4 eaca 7afd bbbf 96cf d304 cf22 ccbf
00000440: ff3c fd40 eb07 c3bf 4f1f a35a a093 d4bf
00000450: ad2b 42f8 6f6e a3bf cc1d 2e1d 0dab c1bf
00000460: 8fef 946e 86c4 c0bf b66c e265 1164 96bf
00000470: bce5 ee35 083c 9c3f 4172 0979 e97a 9ebf
00000480: b1fd 4870 ddec c23f 1507 cb90 8148 a93f
00000490: e99d 8992 20a8 b83f 6595 9653 2188 93bf
000004a0: 0cf0 294c 8224 c4bf b68c 21d7 438c c2bf
000004b0: 9757 11c3 f878 b2bf fd9f 5c86 26b0 b1bf
000004c0: bfc4 a975 3941 c63f f106 540e 1aa4 a33f
000004d0: 1c0d f056 c16f bfbf fc75 52e8 9939 b1bf
000004e0: 0fbe 9105 1d08 b5bf ea79 0bdc 19fd b53f
000004f0: 7d68 c24a d7c2 c8bf bffd 9573 792a 903f
00000500: fbe4 3e41 1ab5 a8bf 72c0 8d0c d9dc d7bf
00000510: 3203 b71a 84d3 a5bf b671 3c41 4ab9 b7bf
00000520: 3fb0 61fa d289 6e3f 874b 5a40 5200 7fbf
00000530: 978d e977 8f10 b3bf ae58 c145 7935 7d3f
00000540: 0d50 f4e4 d919 bbbf 94ab 674d 6adc b53f
00000550: 210e da67 5ca2 c03f 009c db82 2623 a3bf
00000560: bb81 474d 49eb b13f 4970 0b4c e092 b53f
00000570: 0619 9a25 37fd 8b3f a36d f0f0 1faf a0bf
00000580: 9877 e9c4 9715 bebf a46a 0c1d d3f3 79bf
00000590: bdb0 8d9f 320e b93f 0f05 0967 5f56 c1bf
000005a0: df34 d0c9 8eb4 cbbf 3de8 80e4 87e9 c9bf
000005b0: cbb8 67d9 80af b8bf cd37 5acf a48c b5bf
000005c0: 8e9d 35f6 2bdd cfbf a797 8fa9 2248 bbbf
000005d0: a327 fb94 e9bc c23f e668 4156 1042 f33e
000005e0: 4f62 bc95 5e81 643f 86c5 df56 93ea c13f
000005f0: 8417 c96f 3f4f b23f 43e0 41f3 3fe5 bd3f
00000600: cc21 8935 81e1 cfbf 93ee 0a03 b50b cfbf
00000610: a280 01e0 bb2e a13f 0c01 d8d9 aa7a c6bf
00000620: a27c 134d c302 c4bf c7ca 47ea bdaf c5bf
00000630: f939 f7bc c77d c4bf 488b 1b6e c57e ba3f
00000640: cc6d 3738 bf7d c23f 23fb 646f f83b b0bf
00000650: 9252 33d9 9145 a9bf 3d35 8985 74f5 b1bf
00000660: efd1 7246 43f2 893f bd9b 8acd d9f0 ab3f
00000670: 5ee0 3640 3eb4 943f 4f5f 20f1 6715 a3bf
00000680: 550d 322f 7c61 bb3f fd6c eb42 c55f abbf
00000690: a139 c2da 068e b23f 9d98 eef6 602a 8c3f
000006a0: f630 0ed4 d3d2 9bbf 5a00 4afd ab5b b5bf
000006b0: ce4b cd0f 8460 8bbf 3c1a 04b3 af88 bcbf
000006c0: a358 8b90 fa5e c0bf f0d6 5a4b de93 bd3f
000006d0: fe22 e2f8 aa46 d03f aa51 f348 eedc 8abf
000006e0: 8dea 6ca1 eb8b c63f 6943 7367 f0ab d63f
000006f0: e616 9997 54f5 963f 21f9 4615 9aeb c33f
00000700: a0ab 87e8 7a14 83bf 6296 53cc b7cb c43f
00000710: 5132 6939 0b81 dfbf 8072 69f0 3af0 98bf
00000720: 1f8f eabd dd48 b13f e187 54b5 3df5 b83f
00000730: e4e4 5dad 3bca a4bf e0e9 02d6 9bfd abbf
00000740: 3294 eb40 ace5 90bf 7314 105e 831d b83f
00000750: 7a24 6c08 2e0a c33f c4ff 04fc 3249 b13f
00000760: d916 c152 4292 c53f db19 37d3 5a03 cb3f
00000770: a60e 4b15 ed93 9abf dd04 d77c c8c4 98bf
00000780: 2de2 ddbf 5893 b33f b385 8b57 5830 73bf
00000790: dfbf 9537 f588 b1bf 8055 f4ee 6e48 bb3f
000007a0: 0ce7 fac4 98b8 a83f 47e1 8f1e 64fc b9bf
000007b0: 30a1 7ba5 4ca7 c2bf 1b61 98bd f58a bdbf
000007c0: d4ed 9134 0211 bfbf b349 9d8e 8b77 c13f
000007d0: 060e b77f 9710 a23f e6b5 dfe9 5d0c bcbf
000007e0: f7a5 44f1 fbad b03f 17c0 9e93 bbb5 ad3f
000007f0: 0dfb a7d4 8c48 973f b42e f7ed f43c bc3f
